Prepare the dataset for training and testing ...
Preparation of the data completed!
Fold: 0
Model: "CONV_LSTM_NET_TF"
_________________________________________________________________
Layer (type)                 Output Shape              Param #   
=================================================================
input_1 (InputLayer)         [(None, 4, 50, 6, 1)]     0         
_________________________________________________________________
bidirectional (Bidirectional (None, 4, 48, 4, 128)     300032    
_________________________________________________________________
batch_normalization (BatchNo (None, 4, 48, 4, 128)     512       
_________________________________________________________________
bidirectional_1 (Bidirection (None, 4, 46, 2, 256)     2360320   
_________________________________________________________________
batch_normalization_1 (Batch (None, 4, 46, 2, 256)     1024      
_________________________________________________________________
flatten (Flatten)            (None, 94208)             0         
_________________________________________________________________
dense (Dense)                (None, 128)               12058752  
_________________________________________________________________
batch_normalization_2 (Batch (None, 128)               512       
_________________________________________________________________
dropout (Dropout)            (None, 128)               0         
_________________________________________________________________
dense_1 (Dense)              (None, 6)                 774       
=================================================================
Total params: 14,721,926
Trainable params: 14,720,902
Non-trainable params: 1,024
_________________________________________________________________
None
Epoch 1/500
24/24 - 23s - loss: 1.6206 - accuracy: 0.5245 - val_loss: 1.5017 - val_accuracy: 0.4684

Epoch 00001: val_loss improved from inf to 1.50165, saving model to ./Models/CONV_LSTM_NET_TF0.hdf5
…
