Prepare the dataset for training and testing ...
Preparation of the data completed!
Fold: 0
Model: "CNN_NET_TF"
_________________________________________________________________
Layer (type)                 Output Shape              Param #   
=================================================================
input_1 (InputLayer)         [(None, 100, 3, 1)]       0         
_________________________________________________________________
conv2d (Conv2D)              (None, 99, 2, 64)         320       
_________________________________________________________________
batch_normalization (BatchNo (None, 99, 2, 64)         256       
_________________________________________________________________
conv2d_1 (Conv2D)            (None, 98, 1, 128)        32896     
_________________________________________________________________
batch_normalization_1 (Batch (None, 98, 1, 128)        512       
_________________________________________________________________
flatten (Flatten)            (None, 12544)             0         
_________________________________________________________________
dense (Dense)                (None, 128)               1605760   
_________________________________________________________________
batch_normalization_2 (Batch (None, 128)               512       
_________________________________________________________________
dropout (Dropout)            (None, 128)               0         
_________________________________________________________________
dense_1 (Dense)              (None, 6)                 774       
=================================================================
Total params: 1,641,030
Trainable params: 1,640,390
Non-trainable params: 640
_________________________________________________________________
None
Epoch 1/500
47/47 - 11s - loss: 1.4917 - accuracy: 0.5117 - val_loss: 1.4691 - val_accuracy: 0.4590

Epoch 00001: val_loss improved from inf to 1.46906, saving model to ./Models/CNN_NET_TF0.hdf5
…
