Prepare the dataset for training and testing ...
Preparation of the data completed!
Fold: 0
Model: "LSTM_NET_TF"
_________________________________________________________________
Layer (type)                 Output Shape              Param #   
=================================================================
input_1 (InputLayer)         [(None, 100, 3)]          0         
_________________________________________________________________
bidirectional (Bidirectional (None, 100, 512)          532480    
_________________________________________________________________
batch_normalization (BatchNo (None, 100, 512)          2048      
_________________________________________________________________
bidirectional_1 (Bidirection (None, 100, 256)          656384    
_________________________________________________________________
batch_normalization_1 (Batch (None, 100, 256)          1024      
_________________________________________________________________
flatten (Flatten)            (None, 25600)             0         
_________________________________________________________________
dense (Dense)                (None, 128)               3276928   
_________________________________________________________________
batch_normalization_2 (Batch (None, 128)               512       
_________________________________________________________________
dropout (Dropout)            (None, 128)               0         
_________________________________________________________________
dense_1 (Dense)              (None, 6)                 774       
=================================================================
Total params: 4,470,150
Trainable params: 4,468,358
Non-trainable params: 1,792
_________________________________________________________________
None
Epoch 1/500
47/47 - 14s - loss: 2.0180 - accuracy: 0.4140 - val_loss: 1.7107 - val_accuracy: 0.3017

Epoch 00001: val_loss improved from inf to 1.71067, saving model to ./Models/LSTM_NET_TF0.hdf5
…
