Prepare the dataset for training and testing ...
Preparation of the data completed!
Fold: 0
Model: "GRU_NET_BIG_TF"
_________________________________________________________________
Layer (type)                 Output Shape              Param #   
=================================================================
input_1 (InputLayer)         [(None, 200, 6)]          0         
_________________________________________________________________
bidirectional (Bidirectional (None, 200, 1024)         1597440   
_________________________________________________________________
batch_normalization (BatchNo (None, 200, 1024)         4096      
_________________________________________________________________
bidirectional_1 (Bidirection (None, 200, 512)          1969152   
_________________________________________________________________
batch_normalization_1 (Batch (None, 200, 512)          2048      
_________________________________________________________________
bidirectional_2 (Bidirection (None, 200, 256)          493056    
_________________________________________________________________
batch_normalization_2 (Batch (None, 200, 256)          1024      
_________________________________________________________________
flatten (Flatten)            (None, 51200)             0         
_________________________________________________________________
dense (Dense)                (None, 128)               6553728   
_________________________________________________________________
batch_normalization_3 (Batch (None, 128)               512       
_________________________________________________________________
dropout (Dropout)            (None, 128)               0         
_________________________________________________________________
dense_1 (Dense)              (None, 6)                 774       
=================================================================
Total params: 10,621,830
Trainable params: 10,617,990
Non-trainable params: 3,840
_________________________________________________________________
None
Epoch 1/500
24/24 - 17s - loss: 1.5703 - accuracy: 0.5143 - val_loss: 1.3135 - val_accuracy: 0.5733

Epoch 00001: val_loss improved from inf to 1.31346, saving model to ./Models/GRU_NET_BIG_TF0.hdf5
…
