Prepare the dataset for training and testing ...
Preparation of the data completed!
Fold: 0
Model: "MLP_NET_TF"
_________________________________________________________________
Layer (type)                 Output Shape              Param #   
=================================================================
input_1 (InputLayer)         [(None, 100, 3)]          0         
_________________________________________________________________
flatten (Flatten)            (None, 300)               0         
_________________________________________________________________
dense (Dense)                (None, 256)               77056     
_________________________________________________________________
batch_normalization (BatchNo (None, 256)               1024      
_________________________________________________________________
dropout (Dropout)            (None, 256)               0         
_________________________________________________________________
dense_1 (Dense)              (None, 128)               32896     
_________________________________________________________________
batch_normalization_1 (Batch (None, 128)               512       
_________________________________________________________________
dropout_1 (Dropout)          (None, 128)               0         
_________________________________________________________________
dense_2 (Dense)              (None, 6)                 774       
=================================================================
Total params: 112,262
Trainable params: 111,494
Non-trainable params: 768
_________________________________________________________________
None
Epoch 1/500
47/47 - 6s - loss: 1.7025 - accuracy: 0.4318 - val_loss: 1.5469 - val_accuracy: 0.4667

Epoch 00001: val_loss improved from inf to 1.54691, saving model to ./Models/MLP_NET_TF0.hdf5
…
